…
Pooling2D((3,3)),\n    layers.Conv2D(64, (3,3), activation='relu'),\n    layers.Flatten(), # make it 1D\n    layers.Dense(64, activation='relu'), # 64 neurons\n    layers.Dropout(0.25), # to combat overfitting\n    layers.Dense(2)\n])\n\n\nmodel1.summary()\n\nModel: \"sequential\"\n\n\n\n┏━━━━━━━━━━━━━━━━━━━━━━━━━━━━━━━━━━━━━━┳━━━━━━━━━━━━━━━━━━━━━━━━━━━━━┳━━━━━━━━━━━━━━━━━┓\n┃ Layer (type)                         ┃ Output Shape                ┃         Param # ┃\n┡━━━━━━━━━━━━━━━━━━━━━━━━━━━━━━━━━━━━━━╇━━━━━━━━━━━━━━━━━━━━━━━━━━━━━╇━━━━━━━━━━━━━━━━━┩\n│ conv2d_95 (Conv2D)                   │ (None, 148, 148, 32)        │             896 │\n├──────────────────────────────────────┼─────────────────────────────┼─────────────────┤\n│ max_pooling2d_70 (MaxPooling2D)      │ (None, 74, 74, 32)          │               0 │\n├──────────────────────────────────────┼─────────────────────────────┼─────────────────┤\n│ dropout_40 (Dropout)                 │ (None, 74, 74, 32)          │               0 │\n├──────────────────────────────────────┼─────────────────────────────┼─────────────────┤\n│ conv2d_96 (Conv2D)                   │ (None, 72, 72, 32)          │           9,248 │\n├──────────────────────────────────────┼─────────────────────────────┼─────────────────┤\n│ max_pooling2d_71 (MaxPooling2D)      │ (None, 36, 36, 32)          │               0 │\n├──────────────────────────────────────┼─────────────────────────────┼─────────────────┤\n│ dropout_41 (Dropout)                 │ (None, 36, 36, 32)          │               0 │\n├──────────────────────────────────────┼─────────────────────────────┼─────────────────┤\n│ conv2d_97 (Conv2D)                   │ (None, 34, 34, 64)          │          18,496 │\n├──────────────────────────────────────┼─────────────────────────────┼─────────────────┤\n│ flatten_25 (Flatten)                 │ (None, 73984)               │               0 │\n├──────────────────────────────────────┼─────────────────────────────┼─────────────────┤\n│ dense_73 (Dense)                     │ (None, 64)                  │       4,735,040 │\n├──────────────────────────────────────┼─────────────────────────────┼─────────────────┤\n│ dropout_42 (Dropout)                 │ (None, 64)                  │               0 │\n├──────────────────────────────────────┼─────────────────────────────┼─────────────────┤\n│ dense_74 (Dense)                     │ (None, 2)                   │             130 │\n└──────────────────────────────────────┴─────────────────────────────┴─────────────────┘\n\n\n\n Total params: 14,291,432 (54.52 MB)\n\n\n\n Trainable params: 4,763,810 (18.17 MB)\n\n\n\n Non-trainable params: 0 (0.00 B)\n\n\n\n Optimizer params: 9,527,622 (36.34 MB)\n\n\n\n\n# compile model\nmodel1.compile(optimizer='adam',\n              loss=keras.losses.SparseCategoricalCrossentropy(from_l
…
4, (3,3), activation='relu'),\n    layers.Flatten(), # flatten into 1D \n    layers.Dense(64, activation='relu'), # 64 neurons\n    layers.Dropout(0.25), # to help prevent overfitting\n    layers.Dense(2) # binary classification\n])\n\n\nmodel2.summary()\n\nModel: \"sequential_5\"\n\n\n\n┏━━━━━━━━━━━━━━━━━━━━━━━━━━━━━━━━━━━━━━┳━━━━━━━━━━━━━━━━━━━━━━━━━━━━━┳━━━━━━━━━━━━━━━━━┓\n┃ Layer (type)                         ┃ Output Shape                ┃         Param # ┃\n┡━━━━━━━━━━━━━━━━━━━━━━━━━━━━━━━━━━━━━━╇━━━━━━━━━━━━━━━━━━━━━━━━━━━━━╇━━━━━━━━━━━━━━━━━┩\n│ random_flip_5 (RandomFlip)           │ (None, 150, 150, 3)         │               0 │\n├──────────────────────────────────────┼─────────────────────────────┼─────────────────┤\n│ random_rotation_5 (RandomRotation)   │ (None, 150, 150, 3)         │               0 │\n├──────────────────────────────────────┼─────────────────────────────┼─────────────────┤\n│ conv2d_15 (Conv2D)                   │ (None, 148, 148, 32)        │             896 │\n├──────────────────────────────────────┼─────────────────────────────┼─────────────────┤\n│ max_pooling2d_10 (MaxPooling2D)      │ (None, 49, 49, 32)          │               0 │\n├──────────────────────────────────────┼─────────────────────────────┼─────────────────┤\n│ conv2d_16 (Conv2D)                   │ (None, 47, 47, 32)          │           9,248 │\n├──────────────────────────────────────┼─────────────────────────────┼─────────────────┤\n│ max_pooling2d_11 (MaxPooling2D)      │ (None, 15, 15, 32)          │               0 │\n├──────────────────────────────────────┼─────────────────────────────┼─────────────────┤\n│ conv2d_17 (Conv2D)                   │ (None, 13, 13, 32)          │           9,248 │\n├──────────────────────────────────────┼─────────────────────────────┼─────────────────┤\n│ max_pooling2d_12 (MaxPooling2D)      │ (None, 4, 4, 32)            │               0 │\n├──────────────────────────────────────┼─────────────────────────────┼─────────────────┤\n│ conv2d_18 (Conv2D)                   │ (None, 2, 2, 64)            │          18,496 │\n├──────────────────────────────────────┼─────────────────────────────┼─────────────────┤\n│ flatten_5 (Flatten)                  │ (None, 256)                 │               0 │\n├──────────────────────────────────────┼─────────────────────────────┼─────────────────┤\n│ dense_10 (Dense)                     │ (None, 64)                  │          16,448 │\n├──────────────────────────────────────┼─────────────────────────────┼─────────────────┤\n│ dropout_4 (Dropout)                  │ (None, 64)                  │               0 │\n├──────────────────────────────────────┼─────────────────────────────┼─────────────────┤\n│ dense_11 (Dense)                     │ (None, 2)                   │             130 │\n└──────────────────────────────────────┴─────────────────────────────┴─────────────────┘\n\n\n\n Total params: 54,466 (212.76 KB)\n\n\n\n Trainable params: 54,466 (212.76 KB)\n\n\n\n Non-trainable params: 0 (0.00 B)\n\n\n\n\n# compile model\nmodel2.compile(optimizer='adam',\n              loss=keras.losses.SparseCategoricalCrossentropy(from_logits=True),\n              metrics=['accuracy'])\n#
…
n\ntitle_output = layers.Dense(2, name = \"fake\")(title_features) # final binary classification\n\n\n# put everything into a model\nmodel1 = keras.Model(\n      inputs = title_input,\n      outputs = title_output\n)\n\nmodel1.summary() # summarize model\n\nModel: \"functional_1\"\n\n\n\n┏━━━━━━━━━━━━━━━━━━━━━━━━━━━━━━━━━━━━━━┳━━━━━━━━━━━━━━━━━━━━━━━━━━━━━┳━━━━━━━━━━━━━━━━━┓\n┃ Layer (type)                         ┃ Output Shape                ┃         Param # ┃\n┡━━━━━━━━━━━━━━━━━━━━━━━━━━━━━━━━━━━━━━╇━━━━━━━━━━━━━━━━━━━━━━━━━━━━━╇━━━━━━━━━━━━━━━━━┩\n│ title (InputLayer)                   │ (None, 1)                   │               0 │\n├──────────────────────────────────────┼─────────────────────────────┼─────────────────┤\n│ text_vectorization                   │ (None, 500)                 │               0 │\n│ (TextVectorization)                  │                             │                 │\n├──────────────────────────────────────┼─────────────────────────────┼─────────────────┤\n│ embedding1 (Embedding)               │ (None, 500, 3)              │           6,000 │\n├──────────────────────────────────────┼─────────────────────────────┼─────────────────┤\n│ dropout (Dropout)                    │ (None, 500, 3)              │               0 │\n├──────────────────────────────────────┼─────────────────────────────┼─────────────────┤\n│ global_average_pooling1d             │ (None, 3)                   │               0 │\n│ (GlobalAveragePooling1D)             │                             │                 │\n├──────────────────────────────────────┼─────────────────────────────┼─────────────────┤\n│ dropout_1 (Dropout)                  │ (None, 3)                   │               0 │\n├──────────────────────────────────────┼─────────────────────────────┼─────────────────┤\n│ dense (Dense)                        │ (None, 32)                  │             128 │\n├──────────────────────────────────────┼─────────────────────────────┼─────────────────┤\n│ fake (Dense)                         │ (None, 2)                   │              66 │\n└──────────────────────────────────────┴─────────────────────────────┴─────────────────┘\n\n\n\n Total params: 6,194 (24.20 KB)\n\n\n\n Trainable params: 6,194 (24.20 KB)\n\n\n\n Non-trainable params: 0 (0.00 B)\n\n\n\n\n# visualize model\nutils.plot_model(model1, \"output1_filename.png\",\n                       show_shapes=True,\n                       show_layer_names=True)\n\n\n\n\n\n\n\n\
…
    "text": "Third Model\nIn the third model, We will use both the article title and the article text as input.\n\n# combine both text and title and will require us to concatenate our prior two pipelines:\nboth = layers.concatenate([title_features, text_features], axis=1)\n# add another final dense layer\nboth = layers.Dense(32, activation='relu')(both)\nboth_output = layers.Dense(2, name=\"fake\")(both)\n\n\nmodel3 = keras.Model(\n    inputs = [title_input, text_input],\n    outputs = both_output\n)\nmodel3.summary()\n\nModel: \"functional_5\"\n\n\n\n┏━━━━━━━━━━━━━━━━━━━━━━━━━━━┳━━━━━━━━━━━━━━━━━━━━━━━━┳━━━━━━━━━━━━━━━━┳━━━━━━━━━━━━━━━━━━━━━━━━┓\n┃ Layer (type)              ┃ Output Shape           ┃        Param # ┃ Connected to           ┃\n┡━━━━━━━━━━━━━━━━━━━━━━━━━━━╇━━━━━━━━━━━━━━━━━━━━━━━━╇━━━━━━━━━━━━━━━━╇━━━━━━━━━━━━━━━━━━━━━━━━┩\n│ title (InputLayer)        │ (None, 1)              │              0 │ -                      │\n├───────────────────────────┼────────────────────────┼────────────────┼────────────────────────┤\n│ text (InputLayer)         │ (None, 1)              │              0 │ -                      │\n├───────────────────────────┼────────────────────────┼────────────────┼────────────────────────┤\n│ text_vectorization        │ (None, 500)            │              0 │ title[0][0],           │\n│ (TextVectorization)       │                        │                │ text[0][0]             │\n├───────────────────────────┼────────────────────────┼────────────────┼────────────────────────┤\n│ embedding1 (Embedding)    │ (None, 500, 3)         │          6,000 │ text_vectorization[0]… │\n├───────────────────────────┼────────────────────────┼────────────────┼────────────────────────┤\n│ embedding2 (Embedding)    │ (None, 500, 3)         │          6,000 │ text_vectorization[1]… │\n├───────────────────────────┼────────────────────────┼────────────────┼────────────────────────┤\n│ dropout (Dropout)         │ (None, 500, 3)         │              0 │ embedding1[0][0]       │\n├───────────────────────────┼────────────────────────┼────────────────┼────────────────────────┤\n│ dropout_2 (Dropout)       │ (None, 500, 3)         │              0 │ embedding2[0][0]       │\n├───────────────────────────┼────────────────────────┼────────────────┼────────────────────────┤\n│ global_average_pooling1d  │ (None, 3)              │              0 │ dropout[0][0]          │\n│ (GlobalAveragePooling1D)  │                        │                │                        │\n├───────────────────────────┼────────────────────────┼────────────────┼────────────────────────┤\n│ global_average_pooling1d… │ (None, 3)              │              0 │ dropout_2[0][0]        │\n│ (GlobalAveragePooling1D)  │                        │                │                        │\n├───────────────────────────┼────────────────────────┼────────────────┼────────────────────────┤\n│ dropout_1 (Dropout)       │ (None, 3)              │              0 │ global_average_poolin… │\n├───────────────────────────┼────────────────────────┼────────────────┼────────────────────────┤\n│ dropout_3 (Dropout)       │ (None, 3)              │              0 │ global_average_poolin… │\n├───────────────────────────┼────────────────────────┼────────────────┼────────────────────────┤\n│ dense (Dense)             │ (None, 32)             │            128 │ dropout_1[0][0]        │\n├───────────────────────────┼────────────────────────┼────────────────┼────────────────────────┤\n│ dense_1 (Dense)           │ (None, 32)             │            128 │ dropout_3[0][0]        │\n├───────────────────────────┼────────────────────────┼────────────────┼────────────────────────┤\n│ concatenate (Concatenate) │ (None, 64)             │              0 │ dense[0][0],           │\n│                           │                        │                │ dense_1[0][0]          │\n├───────────────────────────┼────────────────────────┼────────────────┼────────────────────────┤\n│ dense_2 (Dense)           │ (None, 32)             │          2,080 │ concatenate[0][0]      │\n├───────────────────────────┼────────────────────────┼────────────────┼────────────────────────┤\n│ fake (Dense)              │ (None, 2)              │             66 │ dense_2[0][0]          │\n└───────────────────────────┴────────────────────────┴────────────────┴────────────────────────┘\n\n\n\n Total params: 14,402 (56.26 KB)\n\n\n\n Trainable params: 14,402 (56.26 KB)\n\n\n\n Non-trainable params: 0 (0.00 B)\n\n\n\n\n# visualize model\nutils.plot_model(model3, \"output3_filename.png\",\n                       show_shapes=True,\n                       show
…
